F_Auto_MNIST_model.pth (torch, 205775 bytes, 4 tensors)

encoder.weight f4 [32, 784]
0	0x3c2f94db	0.010716642
1	0x3b79fc31	0.0038144703
2	0xbc6aa1d2	-0.0143208075
3	0xbca8d954	-0.020611443
4	0xbde2079a	-0.11036606
5	0xbba3840d	-0.004990107
6	0x3cf74bba	0.030187476
7	0x3cad4bea	0.021154363
8	0x3cbe7e4d	0.023253584
9	0x3d8d1ca4	0.068902284
10	0xbba2c954	-0.004967848
11	0xbd2f8fb3	-0.04286165
12	0x3b9c881f	0.004776969
13	0x3d29f64d	0.041494656
14	0xbd072d10	-0.03300196
15	0xbc5fe3e6	-0.013665175
16	0xbc9975ef	-0.018732993
17	0xbcf8f4bd	-0.030390138
18	0xbbd794c3	-0.006579013
19	0x3c8e0246	0.017335068
20	0x3d242758	0.040076584
21	0xbda544bf	-0.08069753
22	0xbd1b9138	-0.03798029
23	0xb9c9cf4b	-0.00038492153
24	0x3c3482af	0.0110174855
25	0x3cb23dce	0.021757986
26	0x3d41df96	0.04733237
27	0x3d806535	0.06269304
28	0xbc115e73	-0.008872616
29	0x3c93def0	0.01805064
30	0x3d1a2a86	0.03763821
31	0x3c52ab34	0.012858201
32	0xbf76c525	-0.9639457
33	0xbf2b2b58	-0.6686301
34	0x3f715cb8	0.942821
35	0x3ef769ef	0.48323008
36	0xbda51fa1	-0.08062673
37	0x3ec97138	0.39344192
38	0x3ecbef74	0.39831126
39	0x3e8aa48f	0.27078673
40	0x3e852b7a	0.26009732
41	0x3e882b1c	0.2659539
42	0x3dfef278	0.12448591
43	0xbd8f1bd6	-0.06987731
44	0xbe1dd77c	-0.15414232
45	0xbecc3d94	-0.3989073
46	0xbec0436c	-0.3755144
47	0xbdcdcfaa	-0.100493744
48	0x3e46c336	0.19410405
49	0xbf03bcc7	-0.51459926
50	0xbf62ae5c	-0.885473
51	0x3fdd2373	1.7276443
52	0x3cbb3fd5	0.022857586
53	0xbb828a8a	-0.0039838003
54	0x3d73d742	0.059531458
55	0x3d09d026	0.03364577
56	0x3a29e063	0.00064802746
57	0x3d146bbc	0.036235556
58	0x3f2d390d	0.6766518
59	0xbf7b2bdd	-0.98113805
60	0xbe0ae4c2	-0.13563827
61	0x3ffc76db	1.9723772
62	0x3e61a645	0.22036083
63	0x3f07e9fa	0.53091395
64	0x3d5c377b	0.053763848
65	0x3e417278	0.18891323
66	0x3ebfe2ee	0.3747782
67	0x3edf1b9d	0.43575755
68	0x3f0edb20	0.5580311
69	0x3e63b4c9	0.22236933
70	0x3eb2f2e7	0.34950945
71	0x3c2f0e62	0.0106845815
72	0xbd553333	-0.05205078
73	0xbd7e0c39	-0.062023375
74	0xbdcadf43	-0.09905865
75	0x3d0ad74c	0.03389673
76	0x3e58d574	0.21175176
77	0xba1d8f24	-0.00060104043
78	0xbd697c02	-0.05700303
79	0x3da0a5fa	0.078441575
80	0x3e8f3db4	0.27976763
81	0x3e9bc000	0.30419922
82	0x3cb506c5	0.022097955
83	0xbc0e0171	-0.008667336
84	0xbd0412b9	-0.032244418
85	0xbc114453	-0.008866387
86	0x3e0c0573	0.13673954
87	0xbf6471de	-0.8923625
88	0x3f938b09	1.1526805
89	0xbedd7b3f	-0.43258092
90	0xbe0acd3d	-0.13554855
91	0x3f03eb4b	0.51530904
92	0xbe2e1319	-0.16999473
93	0x3db29321	0.08719469
94	0x3df91693	0.12162509
95	0x3d9133fa	0.07089992
96	0x3de34f22	0.11099078
97	0x3c664cfc	0.01405644
98	0x3dc22c00	0.094810486
99	0xbda78343	-0.08179333
100	0x3adcb7dd	0.0016839463
101	0xbdb377aa	-0.087630585
102	0xbe21f28c	-0.1581518
103	0xbe1db4ec	-0.15401047
104	0x3d5cf62e	0.053945713
105	0x3d1b8c8f	0.037975844
106	0x3e29595c	0.16537994
107	0xbd4c2978	-0.049844235
108	0x3dab5ea7	0.08367663
109	0x3de85ecb	0.11346205
110	0xbf607d3c	-0.8769109
111	0x3b32bf76	0.0027274764
112	0x3bc1cf15	0.0059145787
113	0xbe6b10a5	-0.22955568
114	0xbe2dc3e0	-0.16969252
115	0x3ec7d359	0.39028433
116	0x3e65e576	0.22450814
117	0x3e50af57	0.20379387
118	0x3e8308ff	0.255928
119	0x3c2eb105	0.010662322
120	0x3d9a2e45	0.075283565
121	0xbca9948c	-0.020700715
122	0x3e019689	0.12655081
123	0xbc7f7f4f	-0.015594318
124	0xbe01f43c	-0.12690824
125	0xbdb9ac1e	-0.09066032
126	0xbe6914c9	-0.22761835
127	0xbe8d1ae7	-0.27559587
128	0xbea021cb	-0.31275782
129	0xbe831fe8	-0.2561028
130	0xbe794482	-0.2434254
131	0xbe7cb0ff	-0.24676894
132	0xbe120b08	-0.1426202
133	0x3d2c5fcd	0.04208355
134	0xbe126887	-0.14297687
135	0x3d74c6fc	0.05976008
136	0xbe704fc8	-0.23467934
137	0x3eb08030	0.344728
138	0xbdfa95fd	-0.12235639
139	0x3f5d8b96	0.86541116
140	0xbc69b20e	-0.014263643
141	0xbd00ebc6	-0.03147485
142	0xbec74fdb	-0.38928112
143	0x3f48b387	0.78398937
144	0xbdb1f69e	-0.086896166
145	0xbd4c4e79	-0.049879525
146	0xbe4bb267	-0.19892274
147	0x3d106e89	0.035261665
148	0xbdb364e0	-0.08759475
149	0xb9d7a8da	-0.000411338
150	0xbdc1a3a4	-0.0945504
151	0x3c1a0b5b	0.009402121
152	0xbe0f5db8	-0.14000595
153	0xbda34711	-0.07972539
154	0xbe5d0915	-0.21585496
155	0xbe88c482	-0.26712424
156	0xbe8f1003	-0.27941903
157	0xbe97584a	-0.29559547
158	0xbe88e4c4	-0.26737034
159	0xbe3d264a	-0.18471637
160	0xbe132129	-0.14368118
161	0xbc582396	-0.013192078
162	0xbb48d780	-0.0030646026
163	0x3de5f579	0.11228461
164	0x3e42bbd8	0.19016969
165	0xbe984c63	-0.29745778
166	0xbd2fe376	-0.042941533
167	0x3f081985	0.5316394
168	0x3c11a69b	0.0088898195
169	0x3f8798dc	1.0593524
170	0x3f29bf0f	0.6630716
171	0xbd8ee8d2	-0.06978001
172	0x3d645bf4	0.055751756
173	0x3c313d2e	0.010817809
174	0x3d3cf065	0.046127696
175	0x3d0091f2	0.031389184
176	0x3d2b08e3	0.041756522
177	0x3dedbd56	0.116083786
178	0xbc8ac968	-0.016941741
179	0x3d8a02b4	0.06738797
180	0xbd6e4f14	-0.058180884
181	0xbdba1a75	-0.090870775
182	0xbddef3c4	-0.10886338
183	0xbe3c060f	-0.18361686
184	0xbe60dacc	-0.21958464
185	0xbe2f4822	-0.1711736
186	0xbe2706d3	-0.16311197
187	0xbe1dc3ec	-0.1540677
188	0xbc948d5f	-0.018133817
189	0x3d4269a7	0.04746404
190	0xbd02860a	-0.03186611
191	0x3ce78336	0.028260808
192	0x3c79b8bb	0.015241797
193	0xbe8b170e	-0.27166027
194	0xbe933d8a	-0.28757888
195	0xbf213739	-0.6297489
196	0xbf0b9595	-0.5452512
197	0x3f3c6548	0.7359204
198	0xbe855005	-0.26037613
199	0x3f082460	0.53180504
200	0xbd17fcb5	-0.037106235
201	0x3d82c7d7	0.06385773
202	0x3e1475b2	0.14498022
203	0x3e1da118	0.15393484
204	0x3b8e116b	0.0043355725
205	0x3cdee783	0.027210003
206	0x3c76b264	0.01505718
207	0x3d301598	0.042989343
208	0xbd43b133	-0.047776412
209	0x3d09bd85	0.033628006
210	0xbd6b3431	-0.05742282
211	0xbddb51ea	-0.10708983
212	0xbdba9d6f	-0.09112059
213	0xbd9dd09a	-0.07705803
214	0xbde34f38	-0.11099094
215	0xbcc06176	-0.023483973
216	0x3c2ca8a6	0.010538256
217	0xbd465a93	-0.048426222
218	0x3d77114e	0.060319237
219	0x3d88aaa1	0.0667317
220	0x3e09e7bb	0.13467304
221	0x3c975745	0.01847423
222	0x3daa250c	0.083078474
223	0xbd73b24c	-0.05949621
224	0xbf1cfbcb	-0.61321706
225	0xbcf798bd	-0.030224198
226	0x3e66d93a	0.22543803
227	0xbe857ce0	-0.26071835
228	0x3e69f921	0.22848941
229	0x3e056e0b	0.1303026
230	0x3db0dd04	0.086359054
231	0x3e1a6330	0.150769
232	0x3df94e2e	0.12173115
233	0x3dc803da	0.097663596
234	0x3da6eb35	0.08150331
235	0x3c0f97a4	0.008764181
236	0x3dc0a5cb	0.094066225
237	0x3dc48497	0.09595602
238	0x3c415637	0.01180034
239	0x3c63ea54	0.013910849
240	0xbcac61ee	-0.02104279
241	0x3ce77e22	0.028258387
242	0xbb868b54	-0.0041059647
243	0x3caabca3	0.020841902
244	0x3cdfb999	0.02731018
245	0xbd36e393	-0.044650625
246	0xbd7a3f99	-0.061095808
247	0x3dc6e629	0.09711868
248	0x3ddc93ee	0.10770403
249	0x3e4f70df	0.202579
250	0x3e23e40e	0.16004965
251	0xbf3396e4	-0.70152116
252	0xbe68e8c3	-0.22745042
253	0x3e4a44cc	0.19752806
254	0xbe8b2f06	-0.27184314
255	0xbd24036f	-0.040042337

encoder.bias f4 [32]
0	0x3ffb890a	1.9651196
1	0xbd75fb15	-0.060053904
2	0x3fdf81a1	1.7461435
3	0xbd75fb8f	-0.060054358
4	0x402e8905	2.727113
5	0xbd747bce	-0.05968838
6	0xbd75f955	-0.060052235
7	0xbd75f8f8	-0.06005189
8	0x40322db2	2.784039
9	0xbd75f645	-0.060049314
10	0xbd75f95b	-0.060052257
11	0x3fe900dc	1.8203387
12	0xbd75f9eb	-0.060052793
13	0x3f3a7eea	0.72849905
14	0xbd75f101	-0.060044292
15	0xbd75fbac	-0.060054466
16	0xbd75f986	-0.060052417
17	0x3fe334dd	1.7750508
18	0x4025823d	2.586074
19	0xbd75f957	-0.060052242
20	0x40224fc1	2.5361178
21	0xbf4fbba8	-0.81145716
22	0xbd75fb95	-0.06005438
23	0xbd75fa86	-0.06005337
24	0xbd75e28a	-0.060030498
25	0x3fbb16ca	1.461633
26	0xc081c268	-4.054981
27	0xbd75f55b	-0.060048442
28	0xbd75f66c	-0.06004946
29	0xbd75f9c5	-0.060052652
30	0x3fc8b25e	1.5679433
31	0x40374561	2.8636096

decoder.weight f4 [784, 32]
0	0xbef605ff	-0.4805145
1	0xbe8c7790	-0.2743497
2	0xbe981cb1	-0.2970939
3	0x3de151fc	0.110019654
4	0xbeadecc3	-0.33969697
5	0xbe7cddd7	-0.24694
6	0xbd89cc63	-0.06728437
7	0x3e25d7ab	0.16195552
8	0xbf1ae615	-0.6050733
9	0x3d51b787	0.051200416
10	0xbe2c0589	-0.16798986
11	0xbf0c1c2a	-0.54730475
12	0xbe9c3974	-0.30512583
13	0xbed96462	-0.42459399
14	0xbe624596	-0.22096857
15	0xbdd196a7	-0.10233813
16	0x3d8d34de	0.06894849
17	0xbe246c59	-0.16056956
18	0xbf1768d7	-0.5914435
19	0xbd965b51	-0.07341636
20	0xbe986dd0	-0.2977128
21	0xbe66ebc2	-0.22550872
22	0xbe63d6b3	-0.2224987
23	0xbe52a6b0	-0.20571399
24	0xbe3fdf50	-0.1873753
25	0xbee4389f	-0.44574448
26	0xbd9f7f80	-0.077879906
27	0x3ce50a15	0.027958909
28	0x3c8a664d	0.016894484
29	0xbe6aabba	-0.22917071
30	0xbec2d9fd	-0.38056937
31	0xbf799061	-0.9748593
32	0xbe3436dc	-0.17599052
33	0xbdcf2e08	-0.10116202
34	0xbf4a59d6	-0.7904333
35	0xbe0c4837	-0.13699423
36	0xbeaea0b0	-0.3410697
37	0xbeb30785	-0.34966674
38	0x3e0a4c8c	0.13505763
39	0xbdf8e40a	-0.1215287
40	0xbf161640	-0.586277
41	0xbe76f71a	-0.241177
42	0xbd5c04a3	-0.05371536
43	0xbf0eeee8	-0.5583329
44	0xbe886557	-0.26639816
45	0xbdecdee4	-0.115659505
46	0x3dec08b2	0.11525096
47	0xbe283e94	-0.16430122
48	0xbeb5ed7e	-0.35532755
49	0xbea37cb0	-0.31931067
50	0xbf668648	-0.90048647
51	0xbeab1297	-0.3341262
52	0xbf124e55	-0.57150775
53	0xbe4448cc	-0.19168395
54	0x3e347ae9	0.17625012
55	0x3e376c17	0.17912327
56	0xbaaaeb84	-0.001304016
57	0xbf096198	-0.5366454
58	0xbdeee62c	-0.116649956
59	0xbddc03a6	-0.107428834
60	0x3e4448fd	0.19168468
61	0x3dc80de2	0.09768273
62	0xbecbff51	-0.39843228
63	0xbf7c5f30	-0.98582745
64	0xbeb2b7f4	-0.3490597
65	0x3d28b8af	0.041191753
66	0xbed11a28	-0.40840268
67	0xbe02f088	-0.12787068
68	0xbe7093f7	-0.23493944
69	0xbe318bae	-0.1733844
70	0xbdcc20f4	-0.09967223
71	0xbdbf4c6f	-0.093407504
72	0xbee320c4	-0.44360936
73	0x3e71537f	0.23567007
74	0xbcb9a0c4	-0.022659667
75	0xbeb0df66	-0.3454544
76	0xbe5e7540	-0.21724415
77	0xbea07235	-0.31337133
78	0xbe4bdbcf	-0.19908069
79	0x3c908bba	0.017644752
80	0xbcce594b	-0.025189063
81	0xbe76fb97	-0.24119411
82	0xbf0c586e	-0.54822433
83	0x3e431372	0.19050387
84	0xbef61cdf	-0.48068902
85	0xbec79314	-0.389794
86	0xbe65b853	-0.22433595
87	0xbe0c797c	-0.13718218
88	0x3e67b20c	0.22626513
89	0xbed0df91	-0.40795568
90	0xbe4ad13d	-0.1980638
91	0x3e1e7af2	0.15476587
92	0x3d6021d9	0.05471978
93	0xbe80bd7a	-0.2514456
94	0xbe991dc0	-0.2990551
95	0xbf86d18b	-1.0532697
96	0xbeda04ba	-0.4258173
97	0x3eb823da	0.35964853
98	0xbf1eb0c9	-0.619885
99	0xbe6bc3ba	-0.23023883
100	0xbef6cfb1	-0.4820533
101	0xbe90d0e3	-0.28284368
102	0x3d81f0f0	0.06344783
103	0xbdf7394e	-0.12071477
104	0xbe9d4e9a	-0.3072403
105	0x3cf65f55	0.030074755
106	0x3e4ebbe1	0.20188858
107	0xbec506b7	-0.38481686
108	0xbd3873d8	-0.045032352
109	0xbe991f93	-0.29906902
110	0x3e889f29	0.2668393
111	0x3df0e031	0.11761511
112	0xbe6b3ae5	-0.22971685
113	0xbe8ae455	-0.2712733
114	0xbf4dcc08	-0.8038945
115	0xbd64156d	-0.055684496
116	0xbe9f634a	-0.3113044
117	0xbe9b1632	-0.3029037
118	0x3e26ef9f	0.16302346
119	0xbe57d8a3	-0.21078734
120	0x3e89ffab	0.26952872
121	0xbf1f3910	-0.62196445
122	0xbea71eee	-0.32640785
123	0x3c7b848e	0.015351428
124	0xbd1a5543	-0.03767897
125	0xbdb08974	-0.08619967
126	0xbec2c89b	-0.38043675
127	0xbf43a8f0	-0.76429653
128	0xbe93720e	-0.28797954
129	0xbd3c722f	-0.04600733
130	0xbf2440dc	-0.6416147
131	0x3e4e6e0a	0.20159164
132	0xbe539a73	-0.20664386
133	0xbdc562be	-0.09637974
134	0xbe4a75e2	-0.19771531
135	0xbe7629f7	-0.24039446
136	0xbef6af63	-0.48180684
137	0x3de2ade6	0.11068325
138	0xbe4b480e	-0.19851705
139	0xbe3efa04	-0.18650061
140	0xbd6c5c2d	-0.057705093
141	0xbed3d044	-0.41369832
142	0x3e051268	0.12995303
143	0x3e172ed3	0.14763956
144	0xbe497e7b	-0.19677155
145	0xbda54737	-0.08070224
146	0xbf792d98	-0.97335196
147	0xbec61810	-0.38690233
148	0xbeba2bb9	-0.36361483
149	0xbe5ea2f2	-0.21741846
150	0xbd8dd47b	-0.06925293
151	0xbdac2d85	-0.0840712
152	0xbe5cefb2	-0.21575812
153	0xbf1649ee	-0.5870656
154	0xbeedf8ce	-0.46478885
155	0x3cf864f2	0.030321572
156	0xbefa4394	-0.48879683
157	0x3a589f02	0.000826344
158	0xbf05a027	-0.521975
159	0xbf759d0f	-0.9594278
160	0xbf12ce30	-0.5734587
161	0x3daf7438	0.08567089
162	0xbf0e5bf7	-0.5560908
163	0xbea9c132	-0.3315521
164	0xbe7b68d1	-0.24551703
165	0xbce162dd	-0.027512962
166	0x3e005583	0.1253262
167	0x3da32757	0.07966488
168	0xbf0671e2	-0.5251752
169	0x3daad4d6	0.083413765
170	0x3e773fac	0.24145383
171	0xbe5b5ed4	-0.21422893
172	0x3ccf68c5	0.025318513
173	0xbed92011	-0.42407277
174	0xbe114735	-0.1418732
175	0xbd138ee7	-0.036024954
176	0xbe1b9b71	-0.15196015
177	0xbe6fe9fa	-0.23429099
178	0xbf5a8633	-0.8536102
179	0xbd04af81	-0.032393936
180	0xbe6254df	-0.22102688
181	0xbe10c729	-0.14138474
182	0xbd1f9481	-0.038959984
183	0x3ea6ae85	0.32555023
184	0x3e3d2090	0.18469453
185	0xbef8eee5	-0.48619762
186	0xbeea4a2a	-0.45759708
187	0x3ea1e078	0.3161657
188	0x3d21c524	0.03949465
189	0xbe31a77d	-0.17349048
190	0xbef74d4f	-0.4830117
191	0xbf719094	-0.94361234
192	0xbe288f83	-0.16460995
193	0xbd4edca6	-0.050503395
194	0xbf117e61	-0.56833464
195	0xbec9e02e	-0.39428848
196	0xbe465d45	-0.19371517
197	0x3dbc1350	0.09183371
198	0x3d966f39	0.07345433
199	0x3dc36843	0.09541371
200	0xbf13f4aa	-0.577952
201	0x3e9841e6	0.29737777
202	0x3dadd471	0.084877856
203	0xbec65bb9	-0.38741854
204	0xbed0fe5e	-0.40819067
205	0xbeb22e07	-0.3480074
206	0x3ed0b9b1	0.4076667
207	0xbe970628	-0.29496884
208	0xbe9afe39	-0.30272081
209	0xbe9921fc	-0.2990874
210	0xbf571657	-0.8401846
211	0x3e1ddbb1	0.15415837
212	0xbe82f76d	-0.25579396
213	0xbe855356	-0.26040143
214	0x3e3ab048	0.18231308
215	0xbdbcc853	-0.09217896
216	0xbd08ce8a	-0.033400096
217	0xbf3207f3	-0.6954338
218	0xbef969b8	-0.4871347
219	0xbda04dcc	-0.078273386
220	0xbece88d4	-0.40338767
221	0x3d609c61	0.054836635
222	0xbe9ce44d	-0.3064293
223	0xbf62a02c	-0.8852565
224	0xbe88125b	-0.26576504
225	0xbea8b6c1	-0.3295193
226	0xbf0e2c20	-0.5553608
227	0xbe04fe89	-0.12987722
228	0xbf102b05	-0.5631564
229	0xbe1b272b	-0.1515166
230	0x3e0ee9aa	0.13956323
231	0xbde9a05b	-0.114075385
232	0xbeec0625	-0.46098438
233	0xbe56f776	-0.20992836
234	0xbe2cfc34	-0.16893083
235	0xbed1c383	-0.40969476
236	0xbd9bd36f	-0.07608687
237	0xbee221fa	-0.44166547
238	0x3e5d82fa	0.21631995
239	0xbd20c970	-0.039254606
240	0x3d80fb34	0.06297913
241	0xbec110a8	-0.3770802
242	0xbf7b6ae6	-0.9820999
243	0x3de7b72d	0.11314235
244	0xbec4d1b9	-0.38441256
245	0xbecefe31	-0.40428308
246	0xbb578d03	-0.0032890446
247	0xbea32c99	-0.31869963
248	0xbe50e959	-0.20401515
249	0xbf2107f5	-0.62902766
250	0xbdd39080	-0.103302956
251	0xbd0d5c42	-0.034511812
252	0xbd92e005	-0.071716346
253	0xbe12e4ac	-0.14345044
254	0xbe7e269f	-0.2481942
255	0xbf542f0f	-0.82884306

decoder.bias f4 [784]
0	0xbeb7b31b	-0.35878834
1	0xbe7a9ae4	-0.24473149
2	0xbece857c	-0.40336215
3	0xbe52c3d3	-0.20582514
4	0xbe846051	-0.25854734
5	0xbeaaa183	-0.3332635
6	0xbe8c609b	-0.27417454
7	0xbe7b98f0	-0.2457006
8	0xbe5f0c79	-0.21782102
9	0xbe936b09	-0.287926
10	0xbe94dded	-0.29075566
11	0xbe9240ff	-0.28565213
12	0xbeab7fff	-0.3349609
13	0xbeb51810	-0.3536992
14	0xbec69fec	-0.38793886
15	0xbef38a44	-0.47566426
16	0xbea8c0a4	-0.32959473
17	0xbecdd666	-0.40202636
18	0xbea1cdbf	-0.31602284
19	0xbed929ac	-0.42414606
20	0xbe958154	-0.29200232
21	0xbe9d75ae	-0.30753845
22	0xbea5034d	-0.3222908
23	0xbe785a13	-0.2425311
24	0xbe8eab7b	-0.27865204
25	0xbe855aa0	-0.26045704
26	0xbeb1f452	-0.34756714
27	0xbe503e37	-0.20336233
28	0xbe8457dc	-0.2584828
29	0xbf13a640	-0.5767555
30	0xbe9f58bb	-0.31122383
31	0xbee1367c	-0.4398688
32	0xbf15107f	-0.58228296
33	0xbe9aed6d	-0.30259266
34	0xbe4efed6	-0.202144
35	0xbeea2bee	-0.4573664
36	0xbe485212	-0.19562557
37	0xbe5f9194	-0.21832877
38	0xbe9a7991	-0.30170873
39	0xbf2e4505	-0.68074065
40	0xbe9dc452	-0.30813843
41	0xbe81b951	-0.25336698
42	0xbe59430c	-0.21216983
43	0xbe924fde	-0.2857656
44	0xbe8fa91b	-0.28058705
45	0xbef19118	-0.4718101
46	0xbe422661	-0.18959953
47	0xbeb59160	-0.35462475
48	0xbe6dd604	-0.23226172
49	0xbe4a3e09	-0.19750227
50	0xbeb85b82	-0.36007315
51	0xbe96b7ed	-0.294372
52	0xbeb81f80	-0.35961533
53	0xbe8936b9	-0.26799563
54	0xbe970f0f	-0.29503676
55	0xbe87122d	-0.26381055
56	0xbe668e10	-0.2251513
57	0xbe6d5b60	-0.23179388
58	0xbed4d3bd	-0.41567793
59	0xbee6eeb0	-0.4510398
60	0xbe7823d2	-0.24232414
61	0xbe9e75c8	-0.30949235
62	0xbe5d2e4a	-0.21599689
63	0xbf531c54	-0.824651
64	0xbef024a4	-0.46902955
65	0xbeee61ba	-0.46558934
66	0xbf826f72	-1.019026
67	0xc0b32ade	-5.598983
68	0xc0bca751	-5.8954244
69	0xc0aaa694	-5.3328342
70	0xc0a35a1f	-5.104751
71	0xc092c71c	-4.5868053
72	0xc08e9c3a	-4.4565706
73	0xbe76fa07	-0.24118815
74	0xc0898005	-4.2968774
75	0xbec91eda	-0.3928135
76	0xbebb1689	-0.3654063
77	0xbf893d91	-1.0721914
78	0xbeda76da	-0.42668802
79	0xbe8d9c4f	-0.27658316
80	0xbed1955e	-0.4093427
81	0xbeca4e0a	-0.39512664
82	0xbe62619c	-0.22107548
83	0xbe88dfb5	-0.26733175
84	0xbeccccd8	-0.40000033
85	0xbe8f0818	-0.27935863
86	0xbe83659f	-0.25663468
87	0xbec97c08	-0.3935244
88	0xbe684576	-0.22682747
89	0xbe45b61b	-0.19307749
90	0xbe90fba0	-0.28316975
91	0xbf077096	-0.5290617
92	0xbf9926fe	-1.1965024
93	0xc09792f2	-4.7366877
94	0xc09edd18	-4.964489
95	0xc0d5686b	-6.6689963
96	0xc0d7e4fd	-6.7467027
97	0xc0c890b8	-6.267666
98	0xc0c4b330	-6.1468735
99	0xc0b9f45a	-5.811078
100	0xc0b5228e	-5.660468
101	0xc0bf1a88	-5.9719887
102	0xc0da5647	-6.823032
103	0xc0eb4796	-7.3524885
104	0xc0a7e73c	-5.246977
105	0xc068b277	-3.6358926
106	0xbf897aa7	-1.0740556
107	0xbf72bb2c	-0.9481685
108	0xbe50ce1d	-0.20391126
109	0xbe77d40f	-0.24201988
110	0xbe5aee5d	-0.21379991
111	0xbec1b445	-0.37832847
112	0xbeb48656	-0.3525874
113	0xbf07cab0	-0.5304365
114	0xbe79c294	-0.24390632
115	0xbe5058c9	-0.20346369
116	0xbe3129ac	-0.17301053
117	0xbf4cea4b	-0.80045
118	0xbf956fa1	-1.1674691
119	0xc03ecb22	-2.9811482
120	0xc065a4d7	-3.588186
121	0xc050cbfc	-3.2624502
122	0xc04beb5b	-3.18624
123	0xc04965ea	-3.1468453
124	0xc03e1bdf	-2.970451
125	0xc02af1ec	-2.6710157
126	0xc02ba886	-2.6821609
127	0xc043f417	-3.061773
128	0xc0630f60	-3.5478134
129	0xc08035c9	-4.0065656
130	0xc0860167	-4.187671
131	0xc08685d0	-4.2038345
132	0xc095c989	-4.6808515
133	0xc0963791	-4.694283
134	0xc07a1c5b	-3.9079807
135	0xbfbbe69b	-1.467975
136	0xbf11ae8b	-0.56906956
137	0xbf60024b	-0.875035
138	0xbe4c8687	-0.19973193
139	0xbed9bf8f	-0.4252896
140	0xbe614219	-0.2199787
141	0xbea312c7	-0.31850263
142	0xbe598400	-0.2124176
143	0xbe913bae	-0.28365844
144	0xbf358915	-0.70912296
145	0xbf887d60	-1.0663261
146	0xc050febd	-3.265548
147	0xc02ab64c	-2.6673765
148	0xbfd8a2d7	-1.6924695
149	0xbfbd90c4	-1.4809804
150	0xbfb90e5a	-1.4457505
151	0xbfdde7c6	-1.7336357
152	0xbfea555d	-1.8307301
153	0xbfee421d	-1.8613926
154	0xc00451b9	-2.067488
155	0xc01a7b2f	-2.4137685
156	0xc0235b16	-2.5524344
157	0xc0120e27	-2.2821138
158	0xbfd8104d	-1.6879975
159	0xbf92b2e8	-1.1460848
160	0xbf9690fc	-1.1762996
161	0xbfde338c	-1.7359481
162	0xc0212442	-2.517838
163	0xc05093c3	-3.2590187
164	0xc03dbbcf	-2.964588
165	0xbf98c622	-1.1935465
166	0xbefdb88b	-0.49554858
167	0xbeb35b70	-0.350307
168	0xbe9dd4af	-0.30826327
169	0xbe8a0148	-0.26954103
170	0xbe8be879	-0.273258
171	0xbe9eb217	-0.30995247
172	0xbf8b8ce4	-1.0902371
173	0xc0614629	-3.5199072
174	0xc02ecfb9	-2.7314284
175	0xbfcd7016	-1.6049831
176	0xbf871f6d	-1.0556465
177	0xbfb07695	-1.3786188
178	0xc0006028	-2.005869
179	0xc0307556	-2.7571616
180	0xc04999fb	-3.1500232
181	0xc0506458	-3.2561245
182	0xc04d5f8d	-3.208957
183	0xc0477401	-3.1164553
184	0xc03a6378	-2.912321
185	0xc012fe69	-2.296778
186	0xbfa8bd17	-1.3182706
187	0xbf0ba604	-0.54550195
188	0xbdacfdeb	-0.084468685
189	0x3de73a43	0.112904094
190	0xbdcb1f08	-0.09918028
191	0xbf3f2dc3	-0.746792
192	0xbfa141e2	-1.2598231
193	0xbfa2f78e	-1.2731798
194	0xbf74a148	-0.95558596
195	0xbee7d92c	-0.45282876
196	0xbea266fb	-0.31719193
197	0xbeb48c05	-0.35263076
198	0xbe65ac91	-0.2242911
199	0xbf18cccc	-0.59687495
200	0xc07d5534	-3.9583254
201	0xc0847016	-4.1386824
202	0xc033a71e	-2.807075
203	0xbfe9b4dc	-1.8258319
204	0xbfe462ee	-1.7842691
205	0xc021166b	-2.5169933
206	0xc066b7aa	-3.60496
207	0xc0944037	-4.6328387
208	0xc09fa27f	-4.988586
209	0xc0952212	-4.660409
210	0xc0823af3	-4.069696
211	0xc07265fd	-3.7874749
212	0xc079bff2	-3.9023404
213	0xc065f76f	-3.5932271
214	0xc0232c70	-2.5495872
215	0xbfac7c9d	-1.3475529
216	0xbead3d79	-0.33835962
217	0x3f2cf4e2	0.6756116
218	0x3f9ca511	1.2237874
219	0x3f737907	0.9510655
220	0x3ee86e99	0.4539688
221	0xbf28ea2f	-0.65982336
222	0xbf752a4b	-0.9576766
223	0xbea8462b	-0.32866034
224	0xbeab966d	-0.33513203
225	0xbe528ba3	-0.2056108
226	0xbe3a3547	-0.18184386
227	0xbf3c3fe8	-0.73535013
228	0xc0ae7790	-5.452095
229	0xc087ad3a	-4.239896
230	0xc0385b1c	-2.8805609
231	0xbff9512c	-1.9477897
232	0xc015eef2	-2.342709
233	0xc0642729	-3.5648901
234	0xc0a6c16b	-5.2111106
235	0xc0d0d268	-6.5256844
236	0xc0cc2c7a	-6.3804293
237	0xc0ab641d	-5.355971
238	0xc08ac319	-4.3363156
239	0xc081bd0d	-4.0543275
240	0xc0945373	-4.6351867
241	0xc09affcd	-4.8437257
242	0xc08acc67	-4.3374515
243	0xc038e0ca	-2.88872
244	0xbf5487bf	-0.8301963
245	0x3f8aa60d	1.0831925
246	0x400d7d11	2.2107584
247	0x400a4524	2.16047
248	0x3facbb9a	1.3494751
249	0xbe8e719b	-0.2782105
250	0xbf8127d5	-1.0090281
251	0xbed7c00e	-0.42138714
252	0xbe874940	-0.26423073
253	0xbea618e4	-0.32440865
254	0xbe7fa2e8	-0.24964488
255	0xbf6ca7d9	-0.92443615
