Tran_conv_Auto_MNIST_model.pth (torch, 7343 bytes, 7 tensors)

en_conv1.weight f4 [16, 1, 3, 3]
000000 7c c7 73 be c6 96 bf 3e bd 4a 38 bf 39 92 6d 3e
       -0.23806566 0.37419719 -0.7198904 0.23200311
000010 8f 02 c3 3e e7 1a 11 bf 92 52 39 3e c2 59 9b 3e
       0.3808789 -0.56681675 0.18097904 0.30341917
000020 97 cd 1e bf ca c7 5f be 68 3f d5 c0 de 5a b6 be
       -0.62032455 -0.21853557 -6.66399 -0.356162
000030 d4 76 c4 bd 64 43 c9 c1 6a 82 8c bd ae b7 c9 bc
       -0.09592977 -25.157906 -0.06860812 -0.024623718
000040 44 1d 87 3c 0b 9b 9a 39 ad 90 05 3e 7c 26 93 3c
       0.016493447 0.00029488685 0.1304347 0.017962687
000050 cb 6a 2f bd 3d e3 07 3e d2 e6 e0 bd a9 7c d4 3c
       -0.042826455 0.13270278 -0.109815255 0.025938349
000060 96 81 3f 3a 13 c3 97 bd cc be fa bc 9a 3b 46 bd
       0.00073053816 -0.07410254 -0.030608557 -0.048396684
000070 1c f7 3d bf 94 ac 10 be 96 d5 3a bd 41 42 57 3d
       -0.74205184 -0.14128333 -0.045613848 0.05255342
000080 70 50 b4 3d 3a e7 1a be e9 31 db bd 07 b8 a7 3d
       0.08804405 -0.15127268 -0.10702879 0.08189397
000090 2e d9 ae 3d 67 97 ce bd f5 9e 68 3f 5e 2c 9b 3d
       0.085375175 -0.100874715 0.9086755 0.07576822
0000a0 70 89 cd bd 7b d4 ef 3c 3d 06 19 bd df 60 91 3d
       -0.1003598 0.029276123 -0.037359465 0.07098555
0000b0 49 27 99 bd 9d cf aa be 71 c9 67 be 34 3e d5 bd
       -0.07478196 -0.3336152 -0.22635438 -0.10412255
0000c0 4f 62 38 3e f3 1d 58 bc cc 5e 8f be 76 f5 cc bd
       0.18006252 -0.013190734 -0.28002012 -0.100077555
0000d0 08 c3 d2 be 73 a9 b3 be f1 31 81 3d 25 b9 e1 39
       -0.41164422 -0.35090217 0.06308354 0.00043053288
0000e0 cc be f0 bc 50 fa 0d 3f 77 35 c2 3e 00 be 61 3d
       -0.029387854 0.5546007 0.37931415 0.05511284
0000f0 28 07 97 be fd f5 4e 3e 45 e6 8a 3b 11 0d 74 be
       -0.29497647 0.20211025 0.004238876 -0.2383311
000100 43 f3 66 c1 0c 63 f6 be 88 60 9b be 2c c1 9c c1
       -14.43439 -0.48122442 -0.30347085 -19.594322
000110 e6 7c 5d 3d 5d 8b 12 bf 5e 63 84 3c a8 d1 72 3d
       0.05407419 -0.572439 0.016160663 0.059281975
000120 24 c1 4f bd 52 a4 7d c1 22 75 3d bf f7 db 89 be
       -0.050721303 -15.852617 -0.74006855 -0.26925632
000130 91 56 03 c2 3d 99 0d be 40 62 30 bf b7 c1 9f 3d
       -32.834538 -0.13827987 -0.6889992 0.0780062
000140 63 03 2a 3b 95 fa 3d be 61 b1 5e 3e 26 a8 e2 bd
       0.002594196 -0.1855262 0.21747352 -0.11067228
000150 22 bc ee bd 01 d5 9b 3c ca 40 9a be 28 67 36 3e
       -0.11656977 0.019022467 -0.30127555 0.17812788
000160 97 91 90 be 6c 73 6a 3e fa 52 25 bf 3c 1a aa c0
       -0.28236076 0.22895592 -0.6457974 -5.3157024
000170 4d da 59 bb e9 2c 5f be 27 3a 45 c0 17 37 07 be
       -0.003324169 -0.21794476 -3.0816743 -0.13204609
000180 c3 85 0b be 6a 51 8e 3d f1 a5 d0 bd f5 d1 5f 3e
       -0.13625245 0.06949122 -0.10187901 0.21857436
000190 ae a9 41 bb bd c9 5f bc a8 42 05 3f 2c f3 cd be
       -0.00295506 -0.013658938 0.52054834 -0.40224588
0001a0 9d 40 f9 3f 5b 24 e0 3f d2 db 53 be 27 14 5e 40
       1.9472843 1.7511095 -0.20689324 3.46998
0001b0 96 09 91 bd 50 37 ad c1 5d 8c 86 bf 8f c3 9f be
       -0.070819065 -21.652008 -1.0511585 -0.31203887
0001c0 e8 f6 e2 bd a5 76 82 3e 71 6b 4c bf b1 16 c5 bd
       -0.1108225 0.25481144 -0.7985144 -0.09623469
0001d0 32 44 4c 3e 9b 2a e7 be c3 73 02 3e 7f a5 7e 3e
       0.1994789 -0.45149693 0.12739472 0.24867819
0001e0 c7 1f 7c bf 72 67 fe bf 1b cf db bf 73 93 8b bf
       -0.9848599 -1.9875319 -1.7172579 -1.0904373
0001f0 c8 da 9b 3f 9a 79 31 be 06 e8 88 3e 5b 29 60 bd
       1.2176142 -0.17331544 0.2673952 -0.05472694
000200 20 ff 9a bc 66 a0 03 3f f4 5f ee be 8c 8e ff 3f
       -0.018920481 0.51416624 -0.4655758 1.9965377
000210 b7 e4 e3 3f a2 13 2e be 55 25 4f 40 a1 2d 22 be
       1.7804173 -0.16999677 3.2366536 -0.15837719
000220 85 d8 be bd c4 73 56 be 08 ec 11 be 35 29 82 bd
       -0.093186416 -0.20942599 -0.14250195 -0.06355516
000230 1a 31 4d 3d 2b d6 d2 bd bc 23 c7 c0 ed 1c e5 bd
       0.050095655 -0.102947555 -6.223112 -0.11187158

en_conv1.bias f4 [16]
000000 c2 8a 81 be d0 3c b5 3f 01 80 04 3f ee c9 0c 3f
       -0.25301176 1.4159184 0.5175782 0.5499562
000010 26 0f 96 bd 11 3e 3a be fa f3 d4 3e 8a e6 d9 3f
       -0.07327108 -0.18187739 0.4159239 1.702348
000020 90 4d e5 3f 3e 2b d1 be 9c d1 75 3f 51 56 23 3b
       1.7914295 -0.40853304 0.96022964 0.0024923275
000030 c2 ce 8b 3f a9 59 91 3b 75 3d 00 bf 97 74 a0 3e
       1.0922472 0.004435737 -0.50093776 0.3133895

en_conv2.weight f4 [4, 16, 3, 3]
000000 d3 23 a6 bc 66 5b b7 bd b8 14 3a bd 3d 75 bf 3c
       -0.020280754 -0.0895298 -0.045429915 0.023371333
000010 81 9e d0 3c 93 bb f3 bb 0b 48 0a bd dc be e3 3d
       0.025466206 -0.007438132 -0.03376011 0.11120388
000020 ba 65 ee 3d fa b7 f6 bd 58 6f 24 3b 24 eb 37 bd
       0.116404966 -0.120468095 0.002509078 -0.044901982
000030 4f d6 97 bc 7e ad 86 bb 66 34 07 bd 4d bf e8 bc
       -0.018534807 -0.0041100373 -0.033008955 -0.028411532
000040 b7 17 39 3c 68 e3 bc bb c1 45 58 bb c3 c7 7e bd
       0.011297158 -0.0057644136 -0.003300056 -0.062202226
000050 c6 53 3e bd 23 97 b5 3d d6 34 ee bd 1d 76 4d bd
       -0.04646661 0.08866718 -0.116311714 -0.05016147
000060 fa 10 5a 3d a1 70 0d bc 16 db fd bd ee ce 96 bd
       0.053238846 -0.00863281 -0.12395303 -0.073636875
000070 cb f1 47 bd 8a 17 bf bd 10 13 5b bd b0 ae b7 bd
       -0.048814576 -0.093306616 -0.053484976 -0.08968866
000080 1d 21 e7 bd ff 15 40 bd 26 e7 e7 ba f2 54 b1 3c
       -0.11285613 -0.046895977 -0.0017692789 0.02164695
000090 24 2f d6 bd 17 b4 d3 bd 5a a4 be bd 99 18 00 be
       -0.1045821 -0.10337084 -0.09308691 -0.12509383
0000a0 11 89 d2 bd 72 fb 8f bd dd e3 6c 3c a1 6f a5 bd
       -0.102800496 -0.07030381 0.014458624 -0.08077932
0000b0 4e af ad bd c0 3d cb 3b 56 1b 6f bd 53 7c 8c bd
       -0.08480702 0.0062024295 -0.05837568 -0.068596505
0000c0 00 4c ca 3b 38 db 64 bd 28 4b a2 bd ce 42 9d bd
       0.0061736107 -0.055873126 -0.07924491 -0.076787576
0000d0 8d 04 a5 3d 91 9a a8 3d b2 fe 28 bd 2d 30 86 bc
       0.080575086 0.08232606 -0.04125852 -0.016380394
0000e0 0d f7 95 bd 9f 56 d0 bb bf e8 3e bd 87 76 74 3c
       -0.07322512 -0.0063579823 -0.046608683 0.014920837
0000f0 ff 9c 40 bc 67 08 cf bd 62 e4 a7 3d 8b 74 5f bd
       -0.011756181 -0.101090245 0.081978574 -0.054554503
000100 6a 65 0b 3b 0d f1 df 3c 45 18 4a bd 97 60 9d 3b
       0.0021270164 0.027336622 -0.04933955 0.004802774
000110 fe 59 f8 bd 04 b4 f1 bc ab e9 e6 bd aa 2f 4c bd
       -0.1212654 -0.029504783 -0.112750374 -0.049850143
000120 1c 13 74 bd 6e 35 48 bd 86 a5 66 3c 4a c6 13 bd
       -0.059588537 -0.04887908 0.01407755 -0.036077775
000130 19 63 a4 bd 95 2e b0 bd 24 c5 b3 bd 8f 66 e1 3c
       -0.08026714 -0.08602635 -0.08777836 0.027514724
000140 3a a8 bc bd 36 fc 98 bd c7 ea 94 3d e2 ca a2 bd
       -0.09211774 -0.074699804 0.07271343 -0.07948853
000150 2c 53 b2 bc 20 f3 40 3c e0 55 13 3c ee 53 62 bd
       -0.021768175 0.0117767155 0.008992642 -0.055255823
000160 19 46 97 3d 02 38 32 3d e4 de 09 bd 01 43 d4 bd
       0.07386417 0.043510444 -0.03365983 -0.103643425
000170 36 aa 0d bd cd c9 d9 bd 9b 29 e3 bd 3c d1 a3 bd
       -0.034586154 -0.106341936 -0.1109192 -0.07998893
000180 59 e9 35 3c fc fd 04 be 61 df 41 bd fd a0 08 bd
       0.011102998 -0.12987512 -0.04733217 -0.033356655
000190 75 9a 9c bc 86 b2 83 bd b9 41 5f bc 6c 7d 9a bd
       -0.01911662 -0.06430535 -0.013626509 -0.075434536
0001a0 19 9b bf bd c8 79 a9 3b c3 e7 26 bb ec 2d 90 bc
       -0.093557544 0.005171988 -0.002546773 -0.017600022
0001b0 e4 3c 8c bd e2 4d 0f bc e7 48 2d bd 9e 89 43 bd
       -0.068475515 -0.008746596 -0.042305853 -0.047738664
0001c0 09 1b 9b 3d ce f9 27 3d 2a 1a 80 3c f8 cc 0d bd
       0.07573516 0.041009717 0.015637476 -0.0346193
0001d0 d1 9a be 3d bd 3a 95 bd df f3 87 bd fa 47 9e bc
       0.09306873 -0.07286594 -0.066383116 -0.01932143
0001e0 74 7e f7 bd 6b 7e fc bd 8f 1d f6 3b c7 ff a0 bd
       -0.12084666 -0.123288 0.007510848 -0.07861286
0001f0 53 24 11 bd c8 3f eb 3c 75 f6 2c bc 6a 27 84 bd
       -0.035435032 0.028716937 -0.010556807 -0.0645283
000200 7b ab fb bd d2 1c 03 bb 77 36 98 bd 6b 03 c4 3c
       -0.12288567 -0.0020006192 -0.07432263 0.023927411
000210 4e b7 e6 bb 9b de 90 bc 1f dc f4 bd d0 15 9f 3c
       -0.0070408946 -0.017684272 -0.11956047 0.01941958
000220 6b ae ba bd af 05 ad bd 3c 2f b8 bd 7f 41 70 bd
       -0.09115299 -0.0844835 -0.08993384 -0.058656212
000230 5c eb 89 bd 8d f8 9b bd f8 5a bf bd 40 00 d5 bd
       -0.06734344 -0.07615767 -0.09343523 -0.10400438
000240 db bf 07 3d 39 a9 7a bd 8f 8d c8 bd 0b c6 84 bd
       0.033141952 -0.06119654 -0.09792625 -0.06483086
000250 d1 e1 c9 bd 4a 8a a4 3b 30 16 7d bd a1 c2 c4 bd
       -0.09857524 0.005021368 -0.061788738 -0.09607435
000260 f0 69 b7 bd fa 2b b5 bd 30 29 fa bd 66 d0 cb bc
       -0.08955753 -0.088462785 -0.12214887 -0.024879646
000270 3a 42 25 bd f3 c7 1c bd b1 4f 9d bc 71 ad 85 bb
       -0.04034636 -0.038276624 -0.019203039 -0.0040795137
000280 52 62 c2 bc 0c f3 c6 bd db a9 90 bd cd 6a e8 bc
       -0.023728523 -0.09714326 -0.07063647 -0.02837124
000290 d2 14 2e bd fb b6 c9 3c 4c 59 16 3c fb 0b 1c 3c
       -0.042500325 0.024623385 0.0091765635 0.009524341
0002a0 cf aa df bd 00 0a 9d bd f4 51 33 3c 84 f7 f3 3c
       -0.10921251 -0.07667923 0.010944832 0.02978111
0002b0 b7 64 47 3c 9d b8 bc bd 56 6a c0 bd 52 3d 90 bb
       0.012170008 -0.092149 -0.09395282 -0.004401841
0002c0 90 6b fd bd c2 59 9f bd fd 87 22 3d ef 0d 4c bd
       -0.123740315 -0.07780792 0.03968047 -0.049817976
0002d0 84 7b b8 bd dd f5 98 bd 52 29 dd bd 96 db 04 bd
       -0.09007934 -0.0746877 -0.10798897 -0.032435976
0002e0 32 a3 80 3c 5e be 73 bd 25 fa ac bc 28 86 87 bc
       0.015702818 -0.05950772 -0.021115372 -0.016543463
0002f0 5a a6 fc bb 49 99 67 bc 7d 53 a7 3d fe 22 7f bd
       -0.0077102603 -0.014135667 0.08170221 -0.06228923
000300 60 71 a4 3d 3f 9c 8f bc cc 2b 81 3c 7d 5a aa bd
       0.08029437 -0.017530559 0.015767954 -0.083180405
000310 67 f7 a2 3c 93 d9 8a 3c ff 02 e0 bd 67 cd d7 bc
       0.019893361 0.01694945 -0.109380715 -0.02634306
000320 83 45 9a bc 17 4e 0b 3e 44 33 ba 3d 0e b0 f2 bd
       -0.018831974 0.13604008 0.090918094 -0.11849986
000330 99 21 81 3c 1d 5f 2e bd ec 18 8f bd 30 c9 34 3b
       0.01576309 -0.042571176 -0.06987175 0.0027585737
000340 72 1f bf bb 1b 37 9c 3b ac 56 b2 bd ff 9a a6 bd
       -0.005832606 0.0047673113 -0.087079376 -0.08135032
000350 e4 5f cf bd a3 c9 87 bd ce d9 f0 bc 9d a5 1a 3b
       -0.101257116 -0.06630256 -0.029400732 0.0023597248
000360 14 c7 10 bd 5a 5f 04 3d 3f 35 8f 3a 91 bd 0a 3d
       -0.035346106 0.032317497 0.0010925903 0.03387219
000370 86 2a ab bd 04 14 b1 bd e7 32 c9 bc 69 5d 1e 3c
       -0.0835772 -0.08646396 -0.024560405 0.009665825
000380 72 2c 23 3a 16 dc a7 3d 4d 92 fb 3d e7 36 d7 3d
       0.00062245794 0.08196275 0.12283764 0.10508519
000390 b2 5e 55 bd d6 30 03 bd c1 c2 de ba 49 2b a4 bd
       -0.05209226 -0.032028995 -0.0016995297 -0.080160685
0003a0 ac 0f 82 3c ee ec e5 bb 61 97 7d bd 3c 58 8a bd
       0.015876614 -0.0070167696 -0.061911944 -0.067551106
0003b0 2b 99 0e be 28 b8 d8 bd 7f 03 de bd ae 73 24 bd
       -0.13925616 -0.10582 -0.108405106 -0.040149383
0003c0 32 78 9a bd 23 c7 a6 bd 3f f9 f5 bc d8 1b 06 ba
       -0.07542457 -0.08143451 -0.030026076 -0.00051158434
0003d0 8f 3e e6 bc 87 4e 00 be dd b8 ed 3d 77 04 73 ba
       -0.028106002 -0.12529956 0.116075255 -0.00092703797
0003e0 e9 52 03 bc 34 78 31 bd 37 c1 c7 bc 98 01 31 bc
       -0.008015373 -0.043327525 -0.024384124 -0.010803603
0003f0 36 65 a4 bb 6c e1 ae bd 7d fd da 3d 08 b8 1d bd
       -0.005016948 -0.085390896 0.1069288 -0.038505584

en_conv2.bias f4 [4]
000000 9c 9d cb bd b8 5a 16 bc 07 a1 cd 3c 77 2b 2c 3f
       -0.09942171 -0.0091769025 0.025101198 0.6725382

de_conv1.weight f4 [4, 16, 2, 2]
000000 9b 58 80 3d f8 11 c4 3d 53 37 c2 bb 98 60 a6 bc
       0.062669 0.0957374 -0.0059270053 -0.020309731
000010 10 40 d9 3c 02 cf dd bd e4 29 30 bd 00 5d 9c bb
       0.026519805 -0.10830499 -0.0430087 -0.0047718287
000020 79 1c 91 3d 73 f8 72 bd f3 e7 5a 3d 4e 96 fb 3d
       0.07085509 -0.05931897 0.05344386 0.12284528
000030 20 d5 69 3d 40 eb c1 3d 40 67 2e 3c 2e d6 a3 3d
       0.057088017 0.094686985 0.010644734 0.07999836
000040 b6 a5 9e bd 3e 20 8f 3d c0 bc 1d 3c 10 9f d3 3d
       -0.077464506 0.069885716 0.009627521 0.10333073
000050 b0 ba 2c 3d ac 25 3b bd 14 c6 6f 3d 44 29 e9 bd
       0.042170227 -0.045690224 0.05853851 -0.11384824
000060 b2 52 9f 3c a0 71 d0 bc 07 b5 62 3d ca 27 b7 bd
       0.019448612 -0.025444806 0.055348422 -0.08943136
000070 42 ce e8 bd e6 c9 c8 3d 28 08 68 3d e8 fd 95 3c
       -0.113674656 0.09804134 0.056648403 0.018309548
000080 ca fe a3 3d 58 d6 92 bc c0 a1 a8 bd 20 26 84 bc
       0.080075815 -0.017924473 -0.08233976 -0.01613146
000090 0e 6f d1 3d b4 72 dc bd 1a d6 ae 3d 44 8a 03 3d
       0.1022626 -0.107640654 0.085369304 0.032114282
0000a0 30 56 d4 bd 80 30 bd 3d 7b 8e d7 bd e4 68 29 bd
       -0.103680015 0.09237766 -0.10525223 -0.041359797
0000b0 60 44 8a 3b b0 1f 9d bd b1 72 a0 bd b0 d2 70 3d
       0.0042195767 -0.076720595 -0.07834376 0.058794677
0000c0 04 2f a4 bd 3f a3 9f 3d 9c 0d 01 3d 60 e2 e1 3c
       -0.0801678 0.077948086 0.03150712 0.027573764
0000d0 ce 8a 17 bb b0 a1 a1 bd ba c9 29 3c 48 53 c2 bd
       -0.0023123506 -0.078921676 0.010363037 -0.09488541
0000e0 7a e9 86 3d 40 9f ee 3b c0 ee be 3b 20 a7 b7 bc
       0.06587501 0.0072821677 0.005826801 -0.022418559
0000f0 bc 93 9e bd 5e 9d 9a bd d0 92 1a 3e 30 49 2f 3d
       -0.07743022 -0.07549547 0.15095067 0.042794406
000100 a1 e8 94 bd 98 0e b0 3d 30 33 d1 bc 90 f7 1c bd
       -0.07270933 0.085965335 -0.025537103 -0.03832203
000110 7c 8e 6b 3d 59 8a 2c 3d f0 16 1b bc 3c 06 03 3d
       0.05750893 0.042124126 -0.009465918 0.031988367
000120 35 2f 59 bc bb cb 2d 3d 7e 79 17 bc 21 11 81 3d
       -0.013255884 0.04243062 -0.009245275 0.06302095
000130 69 28 2e be 2e 90 51 3d dd cb 3b 3d 04 c0 1e be
       -0.17007603 0.05116289 0.045848716 -0.15502936
000140 b5 5c b3 bd 7d ce 12 ba 52 63 23 3d 7e c4 9a bd
       -0.08757917 -0.0005600227 0.03988964 -0.07557009
000150 1c 44 aa bd 14 a2 ea bd f9 23 f2 3c 96 0f 1b 3d
       -0.08313772 -0.11456695 0.029558169 0.03785666
000160 6b 86 e4 bd 8c db 0d bd 76 13 a2 bd 44 50 e0 bb
       -0.11158451 -0.034633204 -0.07913868 -0.006845506
000170 c4 60 35 bd a0 9e d1 bd c6 e3 8a 3c 0d a0 2c 3c
       -0.044281736 -0.102353334 0.016954314 0.010536206
000180 df e1 11 bb ef 52 12 be 2d 21 01 be 85 0a 2f be
       -0.0022259874 -0.14289449 -0.12610312 -0.17093857
000190 6a 77 3e be 3d 59 46 bd 90 55 36 be 73 43 56 3c
       -0.1860024 -0.048424948 -0.17806077 0.013077605
0001a0 48 84 cd bc 0c 9f e4 3d 06 9a b3 3c 10 fb 38 bc
       -0.02508749 0.11163148 0.02192403 -0.011290327
0001b0 ca 6b 12 3c fc c9 1c be 22 0f 5b bd 9e 5c af bd
       0.008936832 -0.15311426 -0.05348123 -0.08562587
0001c0 c8 01 f3 3d 68 d2 88 3c 06 fe ff bd 7e c2 d5 bd
       0.11865574 0.016701892 -0.12499623 -0.10437487
0001d0 46 61 90 bd 95 80 5b bd bb 4d 85 3d 4b 05 01 3e
       -0.070498034 -0.053589422 0.065089665 0.12599675
0001e0 82 b6 9d 3d 3a 2d ab 3d e4 0f aa bd 00 21 0a 3a
       0.07700826 0.08358236 -0.08303812 0.00052691996
0001f0 f2 d7 ee ba f3 aa 4a bd bc 52 56 bd 67 db 91 bc
       -0.0018222316 -0.049479436 -0.052324995 -0.017804815
000200 d0 f5 33 3d 40 8f 94 3c f0 72 af 3c 4a 74 a5 bd
       0.043935597 0.018134713 0.021417111 -0.08078821
000210 70 4b b4 3d 93 cb b5 bd 56 e3 b7 bd 48 b9 c5 bc
       0.08803451 -0.08876719 -0.08978908 -0.0241362
000220 40 dc 85 3d e2 ed c0 3d 26 f8 cc 3d fe cc 0b bd
       0.0653615 0.094203725 0.10008268 -0.034131043
000230 1d d4 07 be 07 bb bb bd 05 67 99 bc 01 a4 22 3d
       -0.13264509 -0.09166532 -0.018725881 0.039707188
000240 53 68 3b 3d c3 88 3e bd 9b 64 95 bd 7d cc d8 3c
       0.04575379 -0.046517145 -0.072945796 0.026464695
000250 1d 7d b7 3b cf 67 39 be f7 c5 f8 3c f3 a1 a5 bd
       0.0055996315 -0.18106006 0.030367834 -0.0808753
000260 ad 59 a5 bc aa a0 01 3e 58 74 d3 3d 4f 94 5e bd
       -0.020184362 0.12658945 0.10324925 -0.054340657
000270 c0 73 f3 3b 48 35 ed bc 02 be c1 3c be 16 4f bd
       0.00742957 -0.02895607 0.023650173 -0.050558798
000280 c8 e4 01 be 01 0c 51 3d 0c 37 7e 3c 91 a4 f1 bd
       -0.1268493 0.05103684 0.015516054 -0.11798967
000290 c3 43 20 bd e1 da c0 bd 79 24 1f 3d 64 ed 27 be
       -0.039127123 -0.09416748 0.038853142 -0.16399151
0002a0 88 6f 38 bd c4 19 eb bd 5c 54 b2 bd c0 9d 51 bc
       -0.04502824 -0.11479524 -0.087074965 -0.012793958
0002b0 34 26 ff 3c ed 8d 56 3d b1 66 d2 bd 3a fd 2f be
       0.031146146 0.052381445 -0.10273493 -0.17186442
0002c0 b0 34 b1 bd 94 79 b0 bd 28 72 a6 3d 00 fd bf 3c
       -0.086526275 -0.08616939 0.08127242 0.02343607
0002d0 3e 6f cb 3d aa b7 ce bd ac 23 41 bd 3c 95 1c bd
       0.09933327 -0.10093625 -0.04715316 -0.03822826
0002e0 e0 25 9c bd da 75 e0 bd 70 c3 e9 3c c8 da ff 3c
       -0.076244116 -0.109599784 0.028535575 0.031232253
0002f0 8b 04 0d be 53 63 56 bd 6c 5b 26 be f8 f7 3f 3c
       -0.13771264 -0.052340817 -0.16245812 0.011716835
000300 cf 5e a9 3f e3 96 92 3f e3 88 0f be 9d c8 84 be
       1.3232058 1.1452297 -0.14017062 -0.25934306
000310 e0 10 e3 bb 21 d7 80 bd 34 f3 90 bd 18 67 13 bd
       -0.006929502 -0.062910326 -0.07077637 -0.03598699
000320 8b 0e 92 3f 0f 0a 20 3f 7d 54 63 3f 59 d2 74 3e
       1.1410688 0.6251535 0.88800794 0.23908366
000330 e3 0b e6 bd 55 f7 10 be 27 95 06 be a6 db 9c bd
       -0.11232736 -0.1415685 -0.13142835 -0.07659082
000340 00 50 98 bd 91 55 4f bd 62 30 d9 bd b4 19 1a bd
       -0.07437134 -0.05061871 -0.106049314 -0.03762217
000350 5f a6 05 be 6e 77 9d 3f 48 50 fe bd 11 fc 52 be
       -0.13051747 1.2302072 -0.12417656 -0.20603968
000360 d8 8b 2b bd 8a 05 d2 bd 1e 9a 6b 3f ad 5b 87 3f
       -0.041881412 -0.10254963 0.9203204 1.0574852
000370 a0 9f fc bb 84 4b 58 bd f0 90 2a bd 18 66 2c bd
       -0.0077094585 -0.052806392 -0.04164213 -0.04208955
000380 f8 e2 f0 bd 05 7f 38 be ad 25 e2 bd bc 00 2f be
       -0.11762041 -0.18017204 -0.11042342 -0.17090124
000390 c8 f2 9c bd df 38 91 bd 14 fd 34 be 12 24 88 bd
       -0.07663494 -0.070909254 -0.17674667 -0.06647505
0003a0 9f 79 9f 3f a1 3a 35 c0 aa 5b 6d 3f 66 12 11 3d
       1.2458991 -2.8317034 0.92717993 0.035417937
0003b0 5c 63 5d be 04 71 ee bd b9 7a d3 bd 6e dd 44 be
       -0.21619934 -0.1164265 -0.10326142 -0.19225094
0003c0 80 07 ce bc 20 7b 80 bd 92 1c 8a bd a0 49 e4 3b
       -0.02515006 -0.06273484 -0.067437306 0.0069667846
0003d0 08 d7 71 3f 87 8b 5c 3f d2 1a 76 3f e2 80 06 3f
       0.94468737 0.861504 0.96134675 0.5254041
0003e0 20 7f be bd da 86 c1 bd f4 63 23 bd 70 73 38 bd
       -0.09301591 -0.09449549 -0.039890245 -0.045031965
0003f0 28 0f 45 3f ba 7e 6f be ba 95 a5 3f 1a 3b 21 be
       0.7697625 -0.23388186 1.2936318 -0.15745202

de_conv1.bias f4 [16]
000000 8f 35 66 c0 23 e4 aa bd 82 cd ae be 3a ac 89 bd
       -3.597019 -0.08344295 -0.34141165 -0.06722303
000010 a5 38 d3 bd aa 97 1d c0 be 7e 81 c0 ad 4f 1e be
       -0.103135385 -2.4623818 -4.0467215 -0.15460081
000020 d9 31 7e bd f1 c3 c6 bd 8c 83 3d 3f ec c1 0d bd
       -0.062059257 -0.097053416 0.7402885 -0.034608766
000030 e6 cf 66 be e9 be 96 c0 0c 3c 05 bd 07 00 58 c0
       -0.22540244 -4.7108045 -0.03252797 -3.3750017

de_conv2.weight f4 [16, 1, 2, 2]
000000 89 44 5c 40 e9 36 1c 40 aa 64 1b 40 63 86 ac 3f
       3.441683 2.4408514 2.428019 1.3478512
000010 ea 64 9c 3e a4 69 0e 3d 7f 09 3a bc c3 e8 ff bc
       0.3054574 0.034768716 -0.011354803 -0.03123892
000020 ad d6 78 bf d8 a2 6a bf 79 64 25 3e ec 8b da 3e
       -0.9720257 -0.9165473 0.16151609 0.42684877
000030 d3 d4 a1 3e ca 57 8a 3e 79 4e 37 be ae e2 e7 be
       0.31607684 0.27020103 -0.17901029 -0.4529013
000040 69 5b 31 bd b1 f4 ac 3e a4 1f e9 be d4 89 4c 3e
       -0.043300066 0.33780435 -0.45531952 0.19974452
000050 0e 2a eb bf 82 bd b9 bf 1a 40 14 c0 0f d4 08 c0
       -1.8372209 -1.4510958 -2.3164124 -2.137943
000060 ed 3d 0f c0 18 62 bf c0 40 0c 43 c0 84 7a d8 c0
       -2.2381546 -5.9807243 -3.0476227 -6.7649555
000070 c0 10 51 3e e6 8d 89 3e c4 dd cc bd 96 78 e7 be
       0.20416546 0.26866072 -0.10003236 -0.45209187
000080 bb 42 32 3e 75 1d 0e 3e f3 9b d4 3d 60 43 cf bd
       0.17408268 0.13878424 0.103813075 -0.10120273
000090 5a 8a 4b 3e 38 87 b6 3e 95 12 2a be 0f 38 e9 be
       0.19876996 0.3565004 -0.16608651 -0.45550582
0000a0 0a c5 54 bf 56 71 01 bf 29 c6 9c bf c6 87 8a bf
       -0.8311316 -0.5056356 -1.2247974 -1.0822685
0000b0 1e e7 cb be 57 ca 97 3e 2d 54 68 3e 1f 51 dd be
       -0.39824766 0.2964656 0.2268836 -0.43225953
0000c0 31 f1 8c 3e 29 cb ab 3e 46 42 38 3e 01 03 b8 3d
       0.27527764 0.33553436 0.17994031 0.08984948
0000d0 86 f7 3c c1 29 d6 1d c1 6d c6 49 c1 c4 f6 3a c1
       -11.810431 -9.864785 -12.610944 -11.6852455
0000e0 c0 bc 4a bd b0 2b 0b bd e2 b8 95 be f0 85 e4 3e
       -0.049496412 -0.03397721 -0.29242617 0.44633436
0000f0 78 09 46 40 bd f3 16 40 4c 76 00 40 15 d2 b0 3f
       3.094328 2.3586266 2.0072203 1.3814112
