upsamp_conv_Auto_MNIST_model.pth (torch, 8943 bytes, 7 tensors)

en_conv1.weight f4 [16, 1, 3, 3]
00000000: 9b5f 7f3e ec49 8d3e 1de7 ea3d 151e a03e
00000010: 52ac a1bd faca 4c3e dc47 8f3e cb5b 0b3e
00000020: 6fd5 393e ebd9 c5be 63a9 543e 6663 003e
00000030: 9b2b b73d b8d7 c0be e1dd 6f3d a210 013d
00000040: 2dab 9cbc a80a 96be 8b97 663e 21ae 89be
00000050: 5c74 663e cd11 94bc 8bc9 68bd f9ce c23d
00000060: 1e85 3dbe f22f c9be a7b7 9cbe 4405 923b
00000070: 0d0b 87be 9a04 393c 5e7c 283e 1205 adbe
00000080: 336a 7abe 4139 523d a096 60bd 3a64 24be
00000090: bab0 a13d ee34 2ebe 5f32 51bd 491f 71bd
000000a0: b451 b8be 0cc5 913e b16b 893e c089 893e
000000b0: f59a 41be 367c 7abe d13e 923d 2665 c43e
000000c0: 4457 403c cb77 51be c138 ae3c 7362 a9be
000000d0: 463c 6bbc d995 31be dd38 133e 4bba 633d
000000e0: bb4e 443e f415 203a b275 9abe 9470 d83d
000000f0: 351c 67be 142a 9cbe 7468 7cbe 8c4e 2fbe
00000100: 504e ff3d b56f 42bc 274c 4a3b 47f0 4f3e
00000110: f6ac 5dbe 804a 87be 9b6f 453d aa9b d0bd
00000120: a8dc 833e 0d2c a1bc e02b 28bd 3283 5e3e
00000130: 4023 88bd 2dc7 35be 1ad1 97bd b636 6ebe
00000140: a367 a33e 4e97 d6be e559 403e edc5 d0bd
00000150: f3c1 803d 2583 c03d a49c d73b 6519 debe
00000160: f379 093e 54d4 43be bcfc b3bd 10f2 80be
00000170: 6ff0 0dbe 51f3 d23e 86f4 9abc 0d6e a73e
00000180: 159b 00be 3f34 80be 661b 86be 36a1 c0be
00000190: b8f5 1e3d add9 713e 8245 1c3e d903 e0bb
000001a0: c77e 64be d895 3dbe 8b47 81be 81ed 17bd
000001b0: a731 673d 48f5 1dbe 4f80 95bc 6225 82be
000001c0: 663c acbe 822f b6be af93 03be bc04 aabe
000001d0: f690 a1be e0f9 493d a060 8ebd 28aa aebe
000001e0: ce86 36be 379e 88bd 191c 0d3e 70c7 f93c
000001f0: d2ba 75be 82bf 55be 632d 993d 4988 e43d
00000200: e3a3 39be e189 943d 6874 1d3e 0d7e f73d
00000210: ea2d 293d 9ede 66be 7ab5 90be a7c6 e8bd
00000220: 91f9 80be 9d1e 3cbe a175 8d3e e117 993e
00000230: 281a 95bd f821 32be 0415 74be 7cdb 6bbd
0.24938814 0.2759546 0.114698626 0.3127295 -0.078941956 0.19999304 0.27984512 0.13609235
0.18147825 -0.3864282 0.20767741 0.12537917 0.08943864 -0.3766458 0.05856121 0.031510003
-0.019124592 -0.29305005 0.22518747 -0.26890662 0.22505325 -0.018074894 -0.05683283 0.09512133
-0.18507811 -0.39294392 -0.30608866 0.004456194 -0.2637562 0.011292601 0.16453692 -0.3379293
-0.24454574 0.051324133 -0.054831147 -0.16053858 0.07895036 -0.17012379 -0.05107343 -0.058867726
-0.35999835 0.28470647 0.26839975 0.26862907 -0.18906768 -0.24461445 0.071408875 0.3835842
0.011739556 -0.20455854 0.021267297 -0.33082923 -0.014357632 -0.17342319 0.1437716 0.055597585
0.19170658 0.0006106787 -0.3016792 0.105683476 -0.22569354 -0.30500853 -0.2464922 -0.17119807
0.12466109 -0.011867453 0.0030868144 0.20306502 -0.2164801 -0.26424026 0.04820214 -0.101859406
0.25754285 -0.019674325 -0.041057467 0.21729735 -0.066473484 -0.17751761 -0.0741293 -0.23263058
0.31915006 -0.4191231 0.18784292 -0.10194001 0.06286993 0.09400014 0.0065799523 -0.4337875
0.13425426 -0.19123966 -0.0878844 -0.2518468 -0.1386125 0.4120126 -0.018915426 0.3270115
-0.12559159 -0.2503986 -0.26192778 -0.37622994 0.038808554 0.23618193 0.1526089 -0.006836396
-0.22313987 -0.18514192 -0.25249895 -0.037091736 0.056443837 -0.15425599 -0.018249659 -0.25419146
-0.3363983 -0.3558312 -0.12849306 -0.33206737 -0.3155591 0.049310565 -0.069520235 -0.34114194
-0.17824861 -0.06670802 0.1378025 0.030490607 -0.23997048 -0.20873836 0.0747936 0.11158807
-0.18128924 0.07252861 0.15376437 0.12084589 0.041303553 -0.22545859 -0.28263456 -0.11366015
-0.25190404 -0.18371053 0.27628806 0.2990103 -0.072803795 -0.1739577 -0.23836142 -0.057582363

en_conv1.bias f4 [16]
00000000: 7a4d 7a3e 4e7f 87be 462e c73e 3f4c c1be
00000010: bc4b 6c3e d866 77be 278b 55be ed94 bcbe
00000020: ee2a d33e 19ce b63e dad1 b5bd 47d0 5c3e
00000030: ff31 d33e f581 e8bd 9294 6bbe 3258 9ebe
0.24443617 -0.26464313 0.3890249 -0.37753484 0.23075765 -0.24160326 -0.20853864 -0.3683237
0.4124369 0.35704115 -0.08877917 0.21563827 0.41249081 -0.11352912 -0.23005894 -0.30926663

en_conv2.weight f4 [4, 16, 3, 3]
00000000: ece6 b7bd e456 1d3d a3d1 5cbd 9fc0 9abb
00000010: c28c 0d3d 9123 91bd 7df2 083e ea5b 1fbd
00000020: c0eb 973c 80f2 a13d f2ce 2f3c 3cfe f0bd
00000030: c998 05bd 651d 88bd 9a6f 423a 03d4 7dbd
00000040: 9896 e4bd 61e8 3fbd 61bc 693d 1d82 8e3d
00000050: 3b34 463d b0f1 2b3e 3def 413e ec71 2a3d
00000060: d102 e73d 2866 863d 674e a73d ad92 d63d
00000070: 91e9 e0bb 2adc 41bd 1d66 713d 3d35 55bd
00000080: 922a 2bbc 110a c63c 4d2b 343d 75c9 b0bd
00000090: 92cd 8d3c 662f cc3b c2f3 013e 1d95 3a3d
000000a0: b9dc a13d fade 2f3e 1fcc ce3d 67f5 c33d
000000b0: 6ae8 b23d 76b6 243d f0b9 9e3c 17e4 063e
000000c0: 2e6f cabc 9975 973d c573 6f3d 34da 2abe
000000d0: 5e44 19bd 0afd 383e ab2c 8ebd 0c90 a73d
000000e0: 068d 9abd 44e0 0dbe 232e 313a 6580 12be
000000f0: 8e86 a0bd d3c8 0cbe 4ea7 1abd 11a2 81bd
00000100: c691 5cbd 04a9 e1bc c96e 5abd ace8 41bd
00000110: d93c efbd 4b3c 72bd 878f b9bd 1694 66bd
00000120: ec1f 973d ffca c03d 1bcf 983d d42d 413e
00000130: 94a5 e73c 495f 263e a477 ca3d 804d 853d
00000140: 3f49 e53d acf3 b23c c38e 443c b61f 843d
00000150: eb9a 113e 6c8d dd3d b239 513d 12ca 283d
00000160: c6b9 9a3d c027 363e 3692 3c3d d90a 243d
00000170: 2ce5 a3bb d832 deb9 c7bc 3c3d 531e 08be
00000180: cf1b 953d d09e 533d 6b74 1abd de1b b83c
00000190: e910 9e3d 9041 3d3e 7f91 b33d 4b92 ae3d
000001a0: db65 1c3e 7933 a83d 518b c33d 2ef8 673d
000001b0: 1669 743d cb40 213e 2c12 423e c8ef 2c3e
000001c0: 78d0 463e 056e 303e 1486 3e3e 7b8e 013e
000001d0: 849e b13d 3791 ecbb 1b51 ef3c c138 0a3e
000001e0: 23d1 d2bd bc7a da3d f05b 463d 3630 a43c
000001f0: f4ce 19bc 61f5 c33c 66c1 80bd 1bcc 97bd
00000200: 5831 0bbd a2b9 133d 96ad 0fbe 7ac5 82bd
00000210: 6ff4 623d c5ca d7bc 6308 ccbd 6e92 853d
00000220: b377 7bbc 1b74 9ebb d512 abbc 8fcc 12bd
00000230: 9c71 02be 11ce fe3b b921 133d a691 dc3d
00000240: f4d0 c73d 4618 643d 4876 af3d 3cab 903d
00000250: 013f 993d 5aae 5d3d ac4e 1c3e db1f b23d
00000260: c89a 103e 56c8 853c 2655 ca3c b64e 773d
00000270: f4ea 083c c0c3 423d 1345 ec3d 3a57 b93b
00000280: 5cf4 aa3d 3788 c73d fcf1 023e 0353 473e
00000290: 2fda 323e 680c d63d 9587 803d 625b 063e
000002a0: a9c1 303e dbd2 0a3e 8c4c 113e 4085 453d
000002b0: 2107 a93d 1e58 253d 7f70 0a3e 2e3d 483d
000002c0: b49c cb3d 8414 a73d c952 e33c 9b5b 8d3c
000002d0: f5e8 f83d 8ea2 ff3c f49c 233e 1e6b f63d
000002e0: bbb4 833c 49fc ef3d 758f 523d 7928 fc3d
000002f0: 5d31 253e 87fc 183e 0f06 d13a 542d 083d
00000300: 2200 813c 8415 d83c 703c c63d 133d 66bc
00000310: 20cc 053e 374e 103e 75d3 033e edc7 0b3e
00000320: d93c 463d 3c7e 8d3d 9571 633d 0219 243e
00000330: 9320 21bb 45cd 94bd b4ae bcbd b396 9c3c
00000340: 7c81 bd3d bdbc 253d 5d16 3f3d 281a d8bc
00000350: dff2 463b 4f34 1ebd c480 903d 229d 4b3d
00000360: 2086 373d b95b 053d f3b4 2c3e 1b44 1e3e
00000370: ddbe 893d ae64 1f3e da78 e23d 6f16 293e
00000380: dd04 0c3e ee1b 9f3d 7923 f03d 8c4b db3d
00000390: 8b6f 373d b064 3a3e 6870 7e3d a554 253e
000003a0: 80d2 153e 6ec2 8b3d 3509 063e 9d1e 093e
000003b0: ee6e 253d 2a0e d93b 0c58 c93d a688 253d
000003c0: 5a9f 013e fbcc 353e b118 e53d 6579 103e
000003d0: 297f f83d dc5e 4d3d 4c04 9d3d 0e18 d93d
000003e0: 0974 383e 980f 073e 64cf ab3d f777 193e
000003f0: 570d 463e 77c5 3c3e fa72 773d 7d36 443e
-0.08979592 0.038412943 -0.053910863 -0.0047226693 0.034558065 -0.07086862 0.13373752 -0.038906015
0.018545032 0.07907581 0.010730492 -0.11767241 -0.03261641 -0.066462316 0.00074171426 -0.06196977
-0.11161536 -0.046852473 0.057064418 0.06958411 0.048389655 0.16791415 0.18938918 0.04161255
0.11279834 0.065624535 0.08169251 0.10477195 -0.006863781 -0.047329105 0.058935273 -0.052052725
-0.010447161 0.024174722 0.043986607 -0.08632175 0.017309938 0.0062312363 0.12690642 0.04555236
0.07903428 0.17174903 0.10097527 0.09568291 0.08735736 0.04021307 0.019375771 0.13172947
-0.024711218 0.07395477 0.058460016 -0.166848 -0.037418716 0.18065277 -0.069421135 0.08181772
-0.07546429 -0.13855082 0.0006758889 -0.14306791 -0.07838164 -0.13748483 -0.03775721 -0.0632974
-0.053849958 -0.027546413 -0.05332831 -0.047341034 -0.11681528 -0.05913953 -0.09060579 -0.05629357
0.073791355 0.094137184 0.07461377 0.18865138 0.028277196 0.16247286 0.09886101 0.065089226
0.11195611 0.021844707 0.011996928 0.06451361 0.14219253 0.1081799 0.051080413 0.041208334
0.07554965 0.17788601 0.046037875 0.040049408 -0.0050016847 -0.0004238102 0.04607847 -0.13292818
0.07280695 0.051665127 -0.03770868 0.022474226 0.07718069 0.18482041 0.087679856 0.08523997
0.1527323 0.08212943 0.09548057 0.056633167 0.05967053 0.15747373 0.18952245 0.16888344
0.19415462 0.17229469 0.18605834 0.12652008 0.086728126 -0.0072194594 0.029213479 0.13498212
-0.10293796 0.10667941 0.048427522 0.02004252 -0.00938772 0.023920717 -0.06286888 -0.07411977
-0.033982605 0.036065705 -0.14031062 -0.06385322 0.05540889 -0.026341805 -0.09962537 0.0652207
-0.015348363 -0.004835618 -0.020883003 -0.035839614 -0.12738651 0.00777603 0.035920832 0.10769968
0.097566515 0.05568721 0.08567482 0.0706391 0.0748272 0.054121353 0.15264386 0.08697482
0.14121544 0.01633088 0.024698805 0.0603778 0.008356798 0.047549963 0.11536612 0.00565615
0.08347389 0.09742778 0.12787622 0.1946526 0.17466043 0.10451585 0.0627586 0.13120797
0.17261375 0.13556997 0.14189357 0.04822278 0.08253313 0.04036724 0.13519476 0.04888647
0.09941998 0.0815821 0.027749436 0.017255595 0.12153808 0.031205442 0.15977842 0.1203215
0.01607739 0.117180414 0.051406343 0.12312407 0.16132112 0.14940082 0.001594724 0.033246353
0.015747134 0.026377447 0.09679496 -0.014052647 0.13066149 0.14092337 0.12873633 0.13650484
0.048397873 0.06908843 0.055528242 0.16025165 -0.0024586066 -0.072657146 -0.092130095 0.019114828
0.09253213 0.040463198 0.046652187 -0.02637966 0.0030357165 -0.038624104 0.0705581 0.0497104
0.044805646 0.032558177 0.16865902 0.15455668 0.067258574 0.1556575 0.11058207 0.16512464
0.1367373 0.07768999 0.11725516 0.10707769 0.04478411 0.18202472 0.062118918 0.1614557
0.1463108 0.06824194 0.1308945 0.13390584 0.040388994 0.006624003 0.09831247 0.04041352
0.12658444 0.17753975 0.1118635 0.14108808 0.12133629 0.050139293 0.07666835 0.10600291
0.18013014 0.13189542 0.08389166 0.14987169 0.19341026 0.18434702 0.060412385 0.1916141

en_conv2.bias f4 [4]
00000000: 9220 013e d140 b83d b648 e23d e75b 3c3d
0.12610081 0.08996738 0.11049025 0.045986082

de_conv1.weight f4 [16, 4, 3, 3]
00000000: 092f 1b3e d7c1 b03d c308 2d3d ab18 373e
00000010: 0e0e cf3b 5ef1 863d 626a 063e 972c 3c3e
00000020: 0c43 633e cd78 363e c267 373c 4d9b 7c3c
00000030: 4224 8e3d d2ef 953d 8e4d 303e a356 74bd
00000040: 18cc 613e 108a fcbd b58a 893e 1729 913d
00000050: 5ff1 093e 5205 5a3e 19bc 793e 1efa 383e
00000060: cb92 383e 19e1 483e 1954 633d 8dd4 213e
00000070: 2b03 5c3d d330 2f3e 8ddf 7e3e 06db 9a3b
00000080: 6473 a1bd 29cb ec3d a116 c1bc 1b3a 2abd
00000090: b829 253e 02c4 8d3e 797c 7f3d 74e7 183e
000000a0: e13d 153c 6494 a13d 052a 11bd 8553 293e
000000b0: 4573 7b3e 14af 7f3e bdc2 7a3e 9079 613e
000000c0: 0da8 503e b6ee ddbc 715a 693e 6e29 7c3d
000000d0: f772 253e 864b 9d3d 1870 35bc fe47 4a3e
000000e0: 25de 2a3e f613 3c3e f335 6cbc f806 173e
000000f0: d1c5 b13d e7a5 313d ed0d 5d3c dc5d 763c
00000100: 8665 493e a0d3 783e 9341 223e 5166 dc3d
00000110: 8470 f53c 0d6b 3d3e 95b6 413d 003b 8d3e
00000120: 54cb 51bd dc95 123d c732 fb3d 7c38 5f3d
00000130: 3cb1 443e 3a34 0f3d 6b3e 6d3e 33b8 173e
00000140: cc94 013d 26b5 98bd 6fc5 aebd 51f3 6c3e
00000150: 78aa ba3c 18fb c9bd e3e4 d13b 22a4 673c
00000160: b6c5 9f3d f407 4c3e 2788 783e 9198 1cbb
00000170: 4c3b 423e 3717 853e 4ddb 8c3e 1ccb 7f3e
00000180: 979e 5e3e 0e33 9b3d b473 cb3d 2c5c 97bd
00000190: dc5e 36bd 6937 7c3d 8111 1abe c2d0 133d
000001a0: 06f5 473e a4c1 d5bc f583 763e febb 3c3e
000001b0: b751 c23d 460b 0f3d 2958 543e 88ec 523e
000001c0: 8461 f03c 2022 4c3e 02b0 303e c328 4c3e
000001d0: 2a4c 013e f1a0 523e 05f2 303e d06f df3c
000001e0: 7408 573d bf71 773e 565e 723e 17cc 2d3e
000001f0: 8f82 453e 7bd7 703e 3c3f bc3d 5c53 113e
00000200: 85a3 76bc 7281 823e 9283 d13d e8eb 2e3e
00000210: f0cf 603e cae0 273d 8ec2 4e3e 8739 103e
00000220: 5a7f 0dbd 9b41 803e 3f05 af3d 45a3 743e
00000230: a84b 153e 2b9a c03d c640 76bb 3efa d1bc
00000240: b7d4 453e c9a3 913d 1cba 073e 20b9 8b3c
00000250: ce5b f43c 5004 d73d c0ee 653e 6403 843e
00000260: fa06 423e 0b4a 2e3e 7f54 dfbc 778e 4b3e
00000270: 98c4 093d 4ea1 61bd 7d93 2e3e 12a9 93bd
00000280: d038 ad3d 31c1 803d c56a 8d3d f810 833e
00000290: 69ef 8f3d 97e4 48bd fe67 c63d ce53 893e
000002a0: e237 f93c f8e9 343e 9fdb 703e 3e54 ed3c
000002b0: 052d 213e bd55 ff3d 65ed 9d3c f976 a0bd
000002c0: 0cdf 053e 16d9 9a3d b7ed 2a3e 8e9f 243e
000002d0: c9ff 953e 4b9a 823e 637e 8e3d 4d27 cd3d
000002e0: cb9e b23d 5df4 563e ad9b eebd c8ec 2c3e
000002f0: adfe fc3c 5441 943d a5fe 9bbc 5cbb a2bd
00000300: babe d0bd d8c4 363e a99c acbc cd91 08be
00000310: d4cf 4ebe 9cc4 6abd 2d66 133e 7d9b 6f3d
00000320: 8707 b0bc 764b 383e e02a 23bb e747 d13d
00000330: 1e04 743d 70e1 943d 0a4f 033e c610 013d
00000340: 3a13 1ebd c15b cdbc 25cd 553d a473 043e
00000350: 6e96 453d aed3 e5bd 86db d33d f7ab 5cbd
00000360: 2e04 fc3d 1c22 c63b 0b59 1c3e 6800 fdbc
00000370: e4c2 413d eb7f d03d d543 0d3e 2f9f f83d
00000380: 2764 6b3e 8e89 fd3d 1eaf 08bd 4e99 9c3d
00000390: 2de7 373e ec50 083e b5d2 34bc 3e44 e33d
000003a0: bdac dd3d d002 c83d 832c 533e 1756 093d
000003b0: 58f9 d03d d5d7 8d3e 9847 8d3e 8c2d 32bd
000003c0: 1a9b b23d d565 093e be84 b4bc 1268 d3bc
000003d0: 4b3b babc b4fd 9abc 71cc 443d 10d3 973e
000003e0: f244 703e 8de7 6b3e 25fd 683e 938e 023e
000003f0: 16eb d6bd 8c1b 513d 802e 583d 5c97 64bd
0.15154661 0.08630722 0.042244684 0.17880504 0.006318814 0.06589006 0.1312652 0.18376385
0.22193545 0.1781952 0.011194171 0.015417886 0.069405094 0.07321133 0.17217085 -0.059652936
0.22050512 -0.12331021 0.26863638 0.070879154 0.13470982 0.21291092 0.2438816 0.18064162
0.18024747 0.19617118 0.055500124 0.15803738 0.05371396 0.17108469 0.24889965 0.0047258167
-0.07883337 0.11562187 -0.02357036 -0.04155932 0.16129196 0.27688605 0.062374566 0.14932042
0.009108991 0.078896314 -0.035440464 0.16535766 0.2455569 0.24969131 0.2448835 0.22019029
0.20376606 -0.027091365 0.22788407 0.061562948 0.16157137 0.076804206 -0.0110740885 0.19754025
0.16686304 0.1836699 -0.014417159 0.14748752 0.086803086 0.043371107 0.01349209 0.015037026
0.19667634 0.24299479 0.15845327 0.10761703 0.029960878 0.18497868 0.047293264 0.27584076
-0.0512193 0.03578745 0.122655444 0.054497227 0.19208235 0.034961917 0.23168342 0.1481636
0.031636044 -0.07456426 -0.08533751 0.23139693 0.022786364 -0.098623455 0.0064054593 0.014138253
0.07801382 0.19924909 0.24270688 -0.0023894648 0.18967932 0.25994274 0.27511063 0.24979824
0.21740185 0.07578097 0.09934178 -0.07390627 -0.04452406 0.06157628 -0.1504574 0.03608776
0.19527063 -0.026093312 0.24073775 0.18431088 0.09488242 0.03492286 0.20736755 0.20598042
0.029343374 0.19934893 0.17254642 0.19937424 0.1262671 0.20569207 0.17279823 0.027274996
0.052498296 0.24164484 0.23668799 0.16972385 0.19288085 0.235197 0.091917485 0.14191955
-0.0150536345 0.25489384 0.10230173 0.17082179 0.21954322 0.04098586 0.20191404 0.14084445
-0.03454528 0.25050053 0.085459225 0.23890407 0.14579642 0.09404405 -0.003757523 -0.02563202
0.19319426 0.07111318 0.13254589 0.017056048 0.029828932 0.104988694 0.22454357 0.25783837
0.18947974 0.17020433 -0.02726197 0.19878565 0.033634752 -0.055085473 0.1704845 -0.07209982
0.08458102 0.06286848 0.0690513 0.25598884 0.07028086 -0.049046125 0.09687804 0.2682175
0.030422155 0.17667377 0.23521279 0.028970834 0.1573983 0.12467525 0.019278238 -0.07835192
0.13073367 0.07560937 0.16692244 0.1607649 0.2929671 0.2550834 0.069577 0.10017262
0.087216936 0.20991655 -0.116507865 0.168872 0.030883158 0.07239023 -0.019042322 -0.07945892
-0.10192628 0.17848527 -0.021070795 -0.13336869 -0.20196468 -0.057316408 0.14394446 0.058497895
-0.021487964 0.17997536 -0.0024897382 0.102187924 0.05957424 0.07269561 0.1282312 0.031510137
-0.038592555 -0.025068166 0.052197594 0.12934738 0.048239164 -0.11222015 0.10344605 -0.053874936
0.12305485 0.0060465466 0.15268342 -0.030883983 0.047305003 0.101806484 0.13795407 0.12139737
0.22987424 0.12379752 -0.03337013 0.07646428 0.1795928 0.13312119 -0.011036565 0.110970005
0.10823963 0.097661614 0.20622449 0.033529367 0.102038085 0.2770373 0.27593684 -0.043500468
0.087209895 0.13417752 -0.022035953 -0.02580646 -0.022733351 -0.018919803 0.048046533 0.29653215
0.234638 0.23037548 0.22752817 0.127497 -0.10494058 0.05105166 0.05277872 -0.05580841

de_conv1.bias f4 [16]
00000000: 8b35 ed3c bfe8 ce3d 4106 c1bc 35b0 6d3e
00000010: 8ccb bf3d a267 c3bc 586d 453e 0e3d 21be
00000020: 391d 933d d795 6b3e b9dc 363e f898 e93c
00000030: 12ab 10be 3a4d f93c fb04 1f3e 6e9e 26be
0.028956195 0.101029865 -0.023562552 0.23211749 0.09364995 -0.023853127 0.19279993 -0.15745947
0.07183308 0.23006378 0.17857637 0.028515324 -0.14127758 0.030432332 0.15529244 -0.16271374

de_conv2.weight f4 [1, 16, 3, 3]
00000000: d89e 29be 2f45 efbd 564c ddbd 2d6d 08be
00000010: 3b5c b1bd 7eb4 5fbd 539f 24be 4b56 4cbe
00000020: c400 1dbd f308 46be 054c 17be f4bd d0bd
00000030: eb55 d0bd f522 0ebe 5580 19be 40ad 1ebe
00000040: 22f6 48be 53fa 44be d79b 87bd d5ac f8bd
00000050: 9fdb 16be 0fe8 3abe b82d 3dbe 406e e0bd
00000060: 87c0 62bd f16b cabd cd18 7abd 2988 33be
00000070: 9662 1ebe 8c1a aebd e55e 27be ffcd 04be
00000080: d8a8 3fbe bce9 8bbd 28eb 03be 8786 cfbd
00000090: e07d f5bd 37f0 10be 606a b6bd 9e13 11be
000000a0: ebe7 16be a89d 06be d73a b8bd be8f 11be
000000b0: fedd 36bd d755 acbd b965 c3ba de6f a5bd
000000c0: 2689 c1bd 9d3c 16bd 8c06 07be 09d0 4dbd
000000d0: 09b7 afbd 29a4 17be 0eb8 eebd b16f 0fbe
000000e0: 135a 39be 608a 60bd beb5 42be d72f 54be
000000f0: 9a33 3cbe 0a9b b5bd a659 cbbd c027 fb3c
00000100: 7271 573d 9dcb 9e3d 4083 4cbd 3a52 633d
00000110: 75d2 8f3d e9c3 8a3d ccf3 f8bc 3c65 bc3c
00000120: 373e 2bbd 3fb5 4e3c 9372 b3bc b263 44bc
00000130: 7abd e4bd a65e cebc 87d8 dfbc 4762 e8bd
00000140: 1c24 85bd e25d 5bbd d9b2 1bbe f056 38bd
00000150: da9c 3cbe 3437 efbd 41d1 35be 63c0 bfbd
00000160: 887b 75bd 7e8d 21be e12f 1abe f9b5 d3bd
00000170: 8a5a 97bd feb4 52be 6745 04be 2c64 44be
00000180: 9bc0 49be 9d9e 04be c37f 46be fb3c 04be
00000190: 0988 0dbe 3c43 fcbd 28e9 c8bd f696 0ebe
000001a0: 7016 28be 1609 ffbd 01c9 cdbd 7304 48be
000001b0: a41f b63c 4cd2 b83c 6b90 20bd ee16 0fbd
000001c0: c061 8e3c 35c0 8d3d 81e4 8e3d 9559 a43d
000001d0: 1520 863d 46d7 bfbb 3031 3ebc 3b75 cabd
000001e0: 21de 7abd 13f5 83bd 127a 81bd c4c7 78bd
000001f0: 9424 85bd 1825 33bd 2fe1 d9bd 311d 0dbe
00000200: 9853 4ebe b183 2ebe 3946 63be fe9b 12be
00000210: 8a07 cfbd 1bf5 c6bd 1aab 34be 6d22 6abd
00000220: 2a81 85bd 5624 67bd 48f7 f5bd c4ca 82bc
00000230: 0766 a23d 3a04 0e3c 8df7 8cbc 517e 2dbc
-0.165645 -0.116831176 -0.108055755 -0.13322897 -0.0866017 -0.05461549 -0.16076402 -0.19954793
-0.03833081 -0.19339351 -0.14775093 -0.10192481 -0.101726376 -0.13880523 -0.14990361 -0.15495777
-0.19625142 -0.19236116 -0.06621521 -0.1214234 -0.14732216 -0.18252586 -0.18474472 -0.109585285
-0.05535939 -0.098838694 -0.061058808 -0.1753241 -0.15467295 -0.08501157 -0.16344793 -0.12969206
-0.18716753 -0.06831691 -0.12882674 -0.10133081 -0.119868994 -0.14154135 -0.08907008 -0.1416764
-0.14736907 -0.13146079 -0.08995598 -0.1421499 -0.044645302 -0.0841481 -0.0014907635 -0.080779776
-0.09449987 -0.0366789 -0.13186091 -0.050247226 -0.08579833 -0.14808716 -0.116561994 -0.1400745
-0.18100767 -0.054819465 -0.19014642 -0.20721374 -0.1837906 -0.08867462 -0.099292085 0.030658603
0.052598424 0.0775368 -0.049929857 0.05549834 0.07022563 0.06775648 -0.030389689 0.022997491
-0.04180738 0.012616455 -0.02190522 -0.01198666 -0.11168952 -0.025191616 -0.027324928 -0.1134687
-0.06501028 -0.05355633 -0.15204944 -0.045004785 -0.18419209 -0.11680451 -0.17755605 -0.09362867
-0.05993226 -0.15776631 -0.15057327 -0.10337443 -0.07390316 -0.20576856 -0.129171 -0.19178838
-0.1970238 -0.12951131 -0.19384675 -0.12913887 -0.13821425 -0.123175114 -0.09810096 -0.13924775
-0.16414809 -0.12452905 -0.10048104 -0.19532947 0.022231884 0.022561215 -0.039200228 -0.034933977
0.017380595 0.06921426 0.069771774 0.08024899 0.06549088 -0.00585452 -0.011608407 -0.09885641
-0.061246995 -0.064432286 -0.06322111 -0.060737386 -0.06501117 -0.043736547 -0.106386535 -0.13780667
-0.20149076 -0.17042424 -0.22194757 -0.14317319 -0.1010886 -0.09714719 -0.17643395 -0.057161737
-0.06518777 -0.056431137 -0.12010056 -0.015965827 0.079296164 0.008668 -0.017207885 -0.010589198
